…
45000;1514.690673828125;1988.8548583984375
46000;1519.0872802734375;1801.8740234375
47000;1511.9144287109375;1835.443359375
48000;1517.037109375;1853.6778564453125
49000;1517.56103515625;1876.222900390625
50000;1516.7784423828125;1802.6644287109375
Number of data : 4488
Number of training data: 4035
Number of validation data: 449
learning_rate : 0.001
Model: "sequential_1"
_________________________________________________________________
 Layer (type)                Output Shape              Param #   
=================================================================
 dense_11 (Dense)            (None, 16)                336       
                                                                 
 dense_12 (Dense)            (None, 16)                272       
                                                                 
 dropout (Dropout)           (None, 16)                0         
                                                                 
 dense_13 (Dense)            (None, 16)                272       
                                                                 
 dropout_1 (Dropout)         (None, 16)                0         
                                                                 
 dense_14 (Dense)            (None, 16)                272       
                                                                 
 dropout_2 (Dropout)         (None, 16)                0         
                                                                 
 dense_15 (Dense)            (None, 16)                272       
                                                                 
 dropout_3 (Dropout)         (None, 16)                0         
                                                                 
 dense_16 (Dense)            (None, 16)                272       
                                                                 
 dropout_4 (Dropout)         (None, 16)                0         
                                                                 
 dense_17 (Dense)            (None, 16)                272       
                                                                 
 dropout_5 (Dropout)         (None, 16)                0         
                                                                 
 dense_18 (Dense)            (None, 16)                272       
                                                                 
 dropout_6 (Dropout)         (None, 16)                0         
                                                                 
 dense_19 (Dense)            (None, 16)                272       
                                                                 
 dropout_7 (Dropout)         (None, 16)                0         
                                                                 
 dense_20 (Dense)            (None, 16)                272       
                                                                 
 dropout_8 (Dropout)         (None, 16)                0         
                                                                 
 dense_21 (Dense)            (None, 4)                 68        
                                                                 
=================================================================
Total params: 2852 (11.14 KB)
Trainable params: 2852 (11.14 KB)
Non-trainable params: 0 (0.00 Byte)
_________________________________________________________________
Test point : [372.095, -34.195, -73.0695, 4.34326]
Reponse : [[ 381.38635   -54.456932 -131.20227     1.942288]]
…
