…
45000;0.398856520652771;0.4789814352989197
46000;0.44620537757873535;0.38976308703422546
47000;0.40997129678726196;0.4285642206668854
48000;0.3937819302082062;0.39974352717399597
49000;0.3514522314071655;0.3072444498538971
50000;0.4286017119884491;0.5274589657783508
Number of data : 4488
Number of training data: 4035
Number of validation data: 449
learning_rate : 0.001
Model: "sequential"
_________________________________________________________________
 Layer (type)                Output Shape              Param #   
=================================================================
 dense (Dense)               (None, 16)                336       
                                                                 
 dense_1 (Dense)             (None, 16)                272       
                                                                 
 dense_2 (Dense)             (None, 16)                272       
                                                                 
 dense_3 (Dense)             (None, 16)                272       
                                                                 
 dense_4 (Dense)             (None, 16)                272       
                                                                 
 dense_5 (Dense)             (None, 16)                272       
                                                                 
 dense_6 (Dense)             (None, 16)                272       
                                                                 
 dense_7 (Dense)             (None, 16)                272       
                                                                 
 dense_8 (Dense)             (None, 16)                272       
                                                                 
 dense_9 (Dense)             (None, 16)                272       
                                                                 
 dense_10 (Dense)            (None, 4)                 68        
                                                                 
=================================================================
Total params: 2852 (11.14 KB)
Trainable params: 2852 (11.14 KB)
Non-trainable params: 0 (0.00 Byte)
_________________________________________________________________
Test point : [382.056, -80.0464, -118.469, 58.4692]
Reponse : [[ 383.91135   -80.17071  -118.79294    58.344486]]
…
